DenseNet(
  (features): Sequential(
    (conv0): Conv2d(3, 80, kernel_size=(3, 3), stride=(1, 1), padding=(1, 1), bias=False)
    (denseblock1): _DenseBlock(
      (denselayer1): _DenseLayer(
        (norm1): BatchNorm2d(80, eps=1e-05, momentum=0.1, affine=True, track_running_stats=True)
        (relu1): ReLU(inplace=True)
        (conv1): Conv2d(80, 160, kernel_size=(1, 1), stride=(1, 1), bias=False)
        (norm2): BatchNorm2d(160, eps=1e-05, momentum=0.1, affine=True, track_running_stats=True)
        (relu2): ReLU(inplace=True)
        (conv2): Conv2d(160, 40, kernel_size=(3, 3), stride=(1, 1), padding=(1, 1), bias=False)
        (dropout): Dropout(p=0, inplace=False)
      )
      (denselayer2): _DenseLayer(
        (norm1): BatchNorm2d(120, eps=1e-05, momentum=0.1, affine=True, track_running_stats=True)
        (relu1): ReLU(inplace=True)
        (conv1): Conv2d(120, 160, kernel_size=(1, 1), stride=(1, 1), bias=False)
        (norm2): BatchNorm2d(160, eps=1e-05, momentum=0.1, affine=True, track_running_stats=True)
        (relu2): ReLU(inplace=True)
        (conv2): Conv2d(160, 40, kernel_size=(3, 3), stride=(1, 1), padding=(1, 1), bias=False)
        (dropout): Dropout(p=0, inplace=False)
      )
      (denselayer3): _DenseLayer(
        (norm1): BatchNorm2d(160, eps=1e-05, momentum=0.1, affine=True, track_running_stats=True)
        (relu1): ReLU(inplace=True)
        (conv1): Conv2d(160, 160, kernel_size=(1, 1), stride=(1, 1), bias=False)
        (norm2): BatchNorm2d(160, eps=1e-05, momentum=0.1, affine=True, track_running_stats=True)
        (relu2): ReLU(inplace=True)
        (conv2): Conv2d(160, 40, kernel_size=(3, 3), stride=(1, 1), padding=(1, 1), bias=False)
        (dropout): Dropout(p=0, inplace=False)
      )
      (denselayer4): _DenseLayer(
        (norm1): BatchNorm2d(200, eps=1e-05, momentum=0.1, affine=True, track_running_stats=True)
        (relu1): ReLU(inplace=True)
        (conv1): Conv2d(200, 160, kernel_size=(1, 1), stride=(1, 1), bias=False)
        (norm2): BatchNorm2d(160, eps=1e-05, momentum=0.1, affine=True, track_running_stats=True)
        (relu2): ReLU(inplace=True)
        (conv2): Conv2d(160, 40, kernel_size=(3, 3), stride=(1, 1), padding=(1, 1), bias=False)
        (dropout): Dropout(p=0, inplace=False)
      )
      (denselayer5): _DenseLayer(
        (norm1): BatchNorm2d(240, eps=1e-05, momentum=0.1, affine=True, track_running_stats=True)
        (relu1): ReLU(inplace=True)
        (conv1): Conv2d(240, 160, kernel_size=(1, 1), stride=(1, 1), bias=False)
        (norm2): BatchNorm2d(160, eps=1e-05, momentum=0.1, affine=True, track_running_stats=True)
        (relu2): ReLU(inplace=True)
        (conv2): Conv2d(160, 40, kernel_size=(3, 3), stride=(1, 1), padding=(1, 1), bias=False)
        (dropout): Dropout(p=0, inplace=False)
      )
      (denselayer6): _DenseLayer(
        (norm1): BatchNorm2d(280, eps=1e-05, momentum=0.1, affine=True, track_running_stats=True)
        (relu1): ReLU(inplace=True)
        (conv1): Conv2d(280, 160, kernel_size=(1, 1), stride=(1, 1), bias=False)
        (norm2): BatchNorm2d(160, eps=1e-05, momentum=0.1, affine=True, track_running_stats=True)
        (relu2): ReLU(inplace=True)
        (conv2): Conv2d(160, 40, kernel_size=(3, 3), stride=(1, 1), padding=(1, 1), bias=False)
        (dropout): Dropout(p=0, inplace=False)
      )
      (denselayer7): _DenseLayer(
        (norm1): BatchNorm2d(320, eps=1e-05, momentum=0.1, affine=True, track_running_stats=True)
        (relu1): ReLU(inplace=True)
        (conv1): Conv2d(320, 160, kernel_size=(1, 1), stride=(1, 1), bias=False)
        (norm2): BatchNorm2d(160, eps=1e-05, momentum=0.1, affine=True, track_running_stats=True)
        (relu2): ReLU(inplace=True)
        (conv2): Conv2d(160, 40, kernel_size=(3, 3), stride=(1, 1), padding=(1, 1), bias=False)
        (dropout): Dropout(p=0, inplace=False)
      )
      (denselayer8): _DenseLayer(
        (norm1): BatchNorm2d(360, eps=1e-05, momentum=0.1, affine=True, track_running_stats=True)
        (relu1): ReLU(inplace=True)
        (conv1): Conv2d(360, 160, kernel_size=(1, 1), stride=(1, 1), bias=False)
        (norm2): BatchNorm2d(160, eps=1e-05, momentum=0.1, affine=True, track_running_stats=True)
        (relu2): ReLU(inplace=True)
        (conv2): Conv2d(160, 40, kernel_size=(3, 3), stride=(1, 1), padding=(1, 1), bias=False)
        (dropout): Dropout(p=0, inplace=False)
      )
      (denselayer9): _DenseLayer(
        (norm1): BatchNorm2d(400, eps=1e-05, momentum=0.1, affine=True, track_running_stats=True)
        (relu1): ReLU(inplace=True)
        (conv1): Conv2d(400, 160, kernel_size=(1, 1), stride=(1, 1), bias=False)
        (norm2): BatchNorm2d(160, eps=1e-05, momentum=0.1, affine=True, track_running_stats=True)
        (relu2): ReLU(inplace=True)
        (conv2): Conv2d(160, 40, kernel_size=(3, 3), stride=(1, 1), padding=(1, 1), bias=False)
        (dropout): Dropout(p=0, inplace=False)
      )
      (denselayer10): _DenseLayer(
        (norm1): BatchNorm2d(440, eps=1e-05, momentum=0.1, affine=True, track_running_stats=True)
        (relu1): ReLU(inplace=True)
        (conv1): Conv2d(440, 160, kernel_size=(1, 1), stride=(1, 1), bias=False)
        (norm2): BatchNorm2d(160, eps=1e-05, momentum=0.1, affine=True, track_running_stats=True)
        (relu2): ReLU(inplace=True)
        (conv2): Conv2d(160, 40, kernel_size=(3, 3), stride=(1, 1), padding=(1, 1), bias=False)
        (dropout): Dropout(p=0, inplace=False)
      )
      (denselayer11): _DenseLayer(
        (norm1): BatchNorm2d(480, eps=1e-05, momentum=0.1, affine=True, track_running_stats=True)
        (relu1): ReLU(inplace=True)
        (conv1): Conv2d(480, 160, kernel_size=(1, 1), stride=(1, 1), bias=False)
        (norm2): BatchNorm2d(160, eps=1e-05, momentum=0.1, affine=True, track_running_stats=True)
        (relu2): ReLU(inplace=True)
        (conv2): Conv2d(160, 40, kernel_size=(3, 3), stride=(1, 1), padding=(1, 1), bias=False)
        (dropout): Dropout(p=0, inplace=False)
      )
      (denselayer12): _DenseLayer(
        (norm1): BatchNorm2d(520, eps=1e-05, momentum=0.1, affine=True, track_running_stats=True)
        (relu1): ReLU(inplace=True)
        (conv1): Conv2d(520, 160, kernel_size=(1, 1), stride=(1, 1), bias=False)
        (norm2): BatchNorm2d(160, eps=1e-05, momentum=0.1, affine=True, track_running_stats=True)
        (relu2): ReLU(inplace=True)
        (conv2): Conv2d(160, 40, kernel_size=(3, 3), stride=(1, 1), padding=(1, 1), bias=False)
        (dropout): Dropout(p=0, inplace=False)
      )
      (denselayer13): _DenseLayer(
        (norm1): BatchNorm2d(560, eps=1e-05, momentum=0.1, affine=True, track_running_stats=True)
        (relu1): ReLU(inplace=True)
        (conv1): Conv2d(560, 160, kernel_size=(1, 1), stride=(1, 1), bias=False)
        (norm2): BatchNorm2d(160, eps=1e-05, momentum=0.1, affine=True, track_running_stats=True)
        (relu2): ReLU(inplace=True)
        (conv2): Conv2d(160, 40, kernel_size=(3, 3), stride=(1, 1), padding=(1, 1), bias=False)
        (dropout): Dropout(p=0, inplace=False)
      )
      (denselayer14): _DenseLayer(
        (norm1): BatchNorm2d(600, eps=1e-05, momentum=0.1, affine=True, track_running_stats=True)
        (relu1): ReLU(inplace=True)
        (conv1): Conv2d(600, 160, kernel_size=(1, 1), stride=(1, 1), bias=False)
        (norm2): BatchNorm2d(160, eps=1e-05, momentum=0.1, affine=True, track_running_stats=True)
        (relu2): ReLU(inplace=True)
        (conv2): Conv2d(160, 40, kernel_size=(3, 3), stride=(1, 1), padding=(1, 1), bias=False)
        (dropout): Dropout(p=0, inplace=False)
      )
      (denselayer15): _DenseLayer(
        (norm1): BatchNorm2d(640, eps=1e-05, momentum=0.1, affine=True, track_running_stats=True)
        (relu1): ReLU(inplace=True)
        (conv1): Conv2d(640, 160, kernel_size=(1, 1), stride=(1, 1), bias=False)
        (norm2): BatchNorm2d(160, eps=1e-05, momentum=0.1, affine=True, track_running_stats=True)
        (relu2): ReLU(inplace=True)
        (conv2): Conv2d(160, 40, kernel_size=(3, 3), stride=(1, 1), padding=(1, 1), bias=False)
        (dropout): Dropout(p=0, inplace=False)
      )
      (denselayer16): _DenseLayer(
        (norm1): BatchNorm2d(680, eps=1e-05, momentum=0.1, affine=True, track_running_stats=True)
        (relu1): ReLU(inplace=True)
        (conv1): Conv2d(680, 160, kernel_size=(1, 1), stride=(1, 1), bias=False)
        (norm2): BatchNorm2d(160, eps=1e-05, momentum=0.1, affine=True, track_running_stats=True)
        (relu2): ReLU(inplace=True)
        (conv2): Conv2d(160, 40, kernel_size=(3, 3), stride=(1, 1), padding=(1, 1), bias=False)
        (dropout): Dropout(p=0, inplace=False)
      )
      (denselayer17): _DenseLayer(
        (norm1): BatchNorm2d(720, eps=1e-05, momentum=0.1, affine=True, track_running_stats=True)
        (relu1): ReLU(inplace=True)
        (conv1): Conv2d(720, 160, kernel_size=(1, 1), stride=(1, 1), bias=False)
        (norm2): BatchNorm2d(160, eps=1e-05, momentum=0.1, affine=True, track_running_stats=True)
        (relu2): ReLU(inplace=True)
        (conv2): Conv2d(160, 40, kernel_size=(3, 3), stride=(1, 1), padding=(1, 1), bias=False)
        (dropout): Dropout(p=0, inplace=False)
      )
      (denselayer18): _DenseLayer(
        (norm1): BatchNorm2d(760, eps=1e-05, momentum=0.1, affine=True, track_running_stats=True)
        (relu1): ReLU(inplace=True)
        (conv1): Conv2d(760, 160, kernel_size=(1, 1), stride=(1, 1), bias=False)
        (norm2): BatchNorm2d(160, eps=1e-05, momentum=0.1, affine=True, track_running_stats=True)
        (relu2): ReLU(inplace=True)
        (conv2): Conv2d(160, 40, kernel_size=(3, 3), stride=(1, 1), padding=(1, 1), bias=False)
        (dropout): Dropout(p=0, inplace=False)
      )
      (denselayer19): _DenseLayer(
        (norm1): BatchNorm2d(800, eps=1e-05, momentum=0.1, affine=True, track_running_stats=True)
        (relu1): ReLU(inplace=True)
        (conv1): Conv2d(800, 160, kernel_size=(1, 1), stride=(1, 1), bias=False)
        (norm2): BatchNorm2d(160, eps=1e-05, momentum=0.1, affine=True, track_running_stats=True)
        (relu2): ReLU(inplace=True)
        (conv2): Conv2d(160, 40, kernel_size=(3, 3), stride=(1, 1), padding=(1, 1), bias=False)
        (dropout): Dropout(p=0, inplace=False)
      )
      (denselayer20): _DenseLayer(
        (norm1): BatchNorm2d(840, eps=1e-05, momentum=0.1, affine=True, track_running_stats=True)
        (relu1): ReLU(inplace=True)
        (conv1): Conv2d(840, 160, kernel_size=(1, 1), stride=(1, 1), bias=False)
        (norm2): BatchNorm2d(160, eps=1e-05, momentum=0.1, affine=True, track_running_stats=True)
        (relu2): ReLU(inplace=True)
        (conv2): Conv2d(160, 40, kernel_size=(3, 3), stride=(1, 1), padding=(1, 1), bias=False)
        (dropout): Dropout(p=0, inplace=False)
      )
      (denselayer21): _DenseLayer(
        (norm1): BatchNorm2d(880, eps=1e-05, momentum=0.1, affine=True, track_running_stats=True)
        (relu1): ReLU(inplace=True)
        (conv1): Conv2d(880, 160, kernel_size=(1, 1), stride=(1, 1), bias=False)
        (norm2): BatchNorm2d(160, eps=1e-05, momentum=0.1, affine=True, track_running_stats=True)
        (relu2): ReLU(inplace=True)
        (conv2): Conv2d(160, 40, kernel_size=(3, 3), stride=(1, 1), padding=(1, 1), bias=False)
        (dropout): Dropout(p=0, inplace=False)
      )
      (denselayer22): _DenseLayer(
        (norm1): BatchNorm2d(920, eps=1e-05, momentum=0.1, affine=True, track_running_stats=True)
        (relu1): ReLU(inplace=True)
        (conv1): Conv2d(920, 160, kernel_size=(1, 1), stride=(1, 1), bias=False)
        (norm2): BatchNorm2d(160, eps=1e-05, momentum=0.1, affine=True, track_running_stats=True)
        (relu2): ReLU(inplace=True)
        (conv2): Conv2d(160, 40, kernel_size=(3, 3), stride=(1, 1), padding=(1, 1), bias=False)
        (dropout): Dropout(p=0, inplace=False)
      )
      (denselayer23): _DenseLayer(
        (norm1): BatchNorm2d(960, eps=1e-05, momentum=0.1, affine=True, track_running_stats=True)
        (relu1): ReLU(inplace=True)
        (conv1): Conv2d(960, 160, kernel_size=(1, 1), stride=(1, 1), bias=False)
        (norm2): BatchNorm2d(160, eps=1e-05, momentum=0.1, affine=True, track_running_stats=True)
        (relu2): ReLU(inplace=True)
        (conv2): Conv2d(160, 40, kernel_size=(3, 3), stride=(1, 1), padding=(1, 1), bias=False)
        (dropout): Dropout(p=0, inplace=False)
      )
      (denselayer24): _DenseLayer(
        (norm1): BatchNorm2d(1000, eps=1e-05, momentum=0.1, affine=True, track_running_stats=True)
        (relu1): ReLU(inplace=True)
        (conv1): Conv2d(1000, 160, kernel_size=(1, 1), stride=(1, 1), bias=False)
        (norm2): BatchNorm2d(160, eps=1e-05, momentum=0.1, affine=True, track_running_stats=True)
        (relu2): ReLU(inplace=True)
        (conv2): Conv2d(160, 40, kernel_size=(3, 3), stride=(1, 1), padding=(1, 1), bias=False)
        (dropout): Dropout(p=0, inplace=False)
      )
      (denselayer25): _DenseLayer(
        (norm1): BatchNorm2d(1040, eps=1e-05, momentum=0.1, affine=True, track_running_stats=True)
        (relu1): ReLU(inplace=True)
        (conv1): Conv2d(1040, 160, kernel_size=(1, 1), stride=(1, 1), bias=False)
        (norm2): BatchNorm2d(160, eps=1e-05, momentum=0.1, affine=True, track_running_stats=True)
        (relu2): ReLU(inplace=True)
        (conv2): Conv2d(160, 40, kernel_size=(3, 3), stride=(1, 1), padding=(1, 1), bias=False)
        (dropout): Dropout(p=0, inplace=False)
      )
      (denselayer26): _DenseLayer(
        (norm1): BatchNorm2d(1080, eps=1e-05, momentum=0.1, affine=True, track_running_stats=True)
        (relu1): ReLU(inplace=True)
        (conv1): Conv2d(1080, 160, kernel_size=(1, 1), stride=(1, 1), bias=False)
        (norm2): BatchNorm2d(160, eps=1e-05, momentum=0.1, affine=True, track_running_stats=True)
        (relu2): ReLU(inplace=True)
        (conv2): Conv2d(160, 40, kernel_size=(3, 3), stride=(1, 1), padding=(1, 1), bias=False)
        (dropout): Dropout(p=0, inplace=False)
      )
      (denselayer27): _DenseLayer(
        (norm1): BatchNorm2d(1120, eps=1e-05, momentum=0.1, affine=True, track_running_stats=True)
        (relu1): ReLU(inplace=True)
        (conv1): Conv2d(1120, 160, kernel_size=(1, 1), stride=(1, 1), bias=False)
        (norm2): BatchNorm2d(160, eps=1e-05, momentum=0.1, affine=True, track_running_stats=True)
        (relu2): ReLU(inplace=True)
        (conv2): Conv2d(160, 40, kernel_size=(3, 3), stride=(1, 1), padding=(1, 1), bias=False)
        (dropout): Dropout(p=0, inplace=False)
      )
      (denselayer28): _DenseLayer(
        (norm1): BatchNorm2d(1160, eps=1e-05, momentum=0.1, affine=True, track_running_stats=True)
        (relu1): ReLU(inplace=True)
        (conv1): Conv2d(1160, 160, kernel_size=(1, 1), stride=(1, 1), bias=False)
        (norm2): BatchNorm2d(160, eps=1e-05, momentum=0.1, affine=True, track_running_stats=True)
        (relu2): ReLU(inplace=True)
        (conv2): Conv2d(160, 40, kernel_size=(3, 3), stride=(1, 1), padding=(1, 1), bias=False)
        (dropout): Dropout(p=0, inplace=False)
      )
      (denselayer29): _DenseLayer(
        (norm1): BatchNorm2d(1200, eps=1e-05, momentum=0.1, affine=True, track_running_stats=True)
        (relu1): ReLU(inplace=True)
        (conv1): Conv2d(1200, 160, kernel_size=(1, 1), stride=(1, 1), bias=False)
        (norm2): BatchNorm2d(160, eps=1e-05, momentum=0.1, affine=True, track_running_stats=True)
        (relu2): ReLU(inplace=True)
        (conv2): Conv2d(160, 40, kernel_size=(3, 3), stride=(1, 1), padding=(1, 1), bias=False)
        (dropout): Dropout(p=0, inplace=False)
      )
      (denselayer30): _DenseLayer(
        (norm1): BatchNorm2d(1240, eps=1e-05, momentum=0.1, affine=True, track_running_stats=True)
        (relu1): ReLU(inplace=True)
        (conv1): Conv2d(1240, 160, kernel_size=(1, 1), stride=(1, 1), bias=False)
        (norm2): BatchNorm2d(160, eps=1e-05, momentum=0.1, affine=True, track_running_stats=True)
        (relu2): ReLU(inplace=True)
        (conv2): Conv2d(160, 40, kernel_size=(3, 3), stride=(1, 1), padding=(1, 1), bias=False)
        (dropout): Dropout(p=0, inplace=False)
      )
      (denselayer31): _DenseLayer(
        (norm1): BatchNorm2d(1280, eps=1e-05, momentum=0.1, affine=True, track_running_stats=True)
        (relu1): ReLU(inplace=True)
        (conv1): Conv2d(1280, 160, kernel_size=(1, 1), stride=(1, 1), bias=False)
        (norm2): BatchNorm2d(160, eps=1e-05, momentum=0.1, affine=True, track_running_stats=True)
        (relu2): ReLU(inplace=True)
        (conv2): Conv2d(160, 40, kernel_size=(3, 3), stride=(1, 1), padding=(1, 1), bias=False)
        (dropout): Dropout(p=0, inplace=False)
      )
    )
    (transition1): _Transition(
      (norm): BatchNorm2d(1320, eps=1e-05, momentum=0.1, affine=True, track_running_stats=True)
      (relu): ReLU(inplace=True)
      (conv): Conv2d(1320, 660, kernel_size=(1, 1), stride=(1, 1), bias=False)
      (pool): AvgPool2d(kernel_size=2, stride=2, padding=0)
    )
    (denseblock2): _DenseBlock(
      (denselayer1): _DenseLayer(
        (norm1): BatchNorm2d(660, eps=1e-05, momentum=0.1, affine=True, track_running_stats=True)
        (relu1): ReLU(inplace=True)
        (conv1): Conv2d(660, 160, kernel_size=(1, 1), stride=(1, 1), bias=False)
        (norm2): BatchNorm2d(160, eps=1e-05, momentum=0.1, affine=True, track_running_stats=True)
        (relu2): ReLU(inplace=True)
        (conv2): Conv2d(160, 40, kernel_size=(3, 3), stride=(1, 1), padding=(1, 1), bias=False)
        (dropout): Dropout(p=0, inplace=False)
      )
      (denselayer2): _DenseLayer(
        (norm1): BatchNorm2d(700, eps=1e-05, momentum=0.1, affine=True, track_running_stats=True)
        (relu1): ReLU(inplace=True)
        (conv1): Conv2d(700, 160, kernel_size=(1, 1), stride=(1, 1), bias=False)
        (norm2): BatchNorm2d(160, eps=1e-05, momentum=0.1, affine=True, track_running_stats=True)
        (relu2): ReLU(inplace=True)
        (conv2): Conv2d(160, 40, kernel_size=(3, 3), stride=(1, 1), padding=(1, 1), bias=False)
        (dropout): Dropout(p=0, inplace=False)
      )
      (denselayer3): _DenseLayer(
        (norm1): BatchNorm2d(740, eps=1e-05, momentum=0.1, affine=True, track_running_stats=True)
        (relu1): ReLU(inplace=True)
        (conv1): Conv2d(740, 160, kernel_size=(1, 1), stride=(1, 1), bias=False)
        (norm2): BatchNorm2d(160, eps=1e-05, momentum=0.1, affine=True, track_running_stats=True)
        (relu2): ReLU(inplace=True)
        (conv2): Conv2d(160, 40, kernel_size=(3, 3), stride=(1, 1), padding=(1, 1), bias=False)
        (dropout): Dropout(p=0, inplace=False)
      )
      (denselayer4): _DenseLayer(
        (norm1): BatchNorm2d(780, eps=1e-05, momentum=0.1, affine=True, track_running_stats=True)
        (relu1): ReLU(inplace=True)
        (conv1): Conv2d(780, 160, kernel_size=(1, 1), stride=(1, 1), bias=False)
        (norm2): BatchNorm2d(160, eps=1e-05, momentum=0.1, affine=True, track_running_stats=True)
        (relu2): ReLU(inplace=True)
        (conv2): Conv2d(160, 40, kernel_size=(3, 3), stride=(1, 1), padding=(1, 1), bias=False)
        (dropout): Dropout(p=0, inplace=False)
      )
      (denselayer5): _DenseLayer(
        (norm1): BatchNorm2d(820, eps=1e-05, momentum=0.1, affine=True, track_running_stats=True)
        (relu1): ReLU(inplace=True)
        (conv1): Conv2d(820, 160, kernel_size=(1, 1), stride=(1, 1), bias=False)
        (norm2): BatchNorm2d(160, eps=1e-05, momentum=0.1, affine=True, track_running_stats=True)
        (relu2): ReLU(inplace=True)
        (conv2): Conv2d(160, 40, kernel_size=(3, 3), stride=(1, 1), padding=(1, 1), bias=False)
        (dropout): Dropout(p=0, inplace=False)
      )
      (denselayer6): _DenseLayer(
        (norm1): BatchNorm2d(860, eps=1e-05, momentum=0.1, affine=True, track_running_stats=True)
        (relu1): ReLU(inplace=True)
        (conv1): Conv2d(860, 160, kernel_size=(1, 1), stride=(1, 1), bias=False)
        (norm2): BatchNorm2d(160, eps=1e-05, momentum=0.1, affine=True, track_running_stats=True)
        (relu2): ReLU(inplace=True)
        (conv2): Conv2d(160, 40, kernel_size=(3, 3), stride=(1, 1), padding=(1, 1), bias=False)
        (dropout): Dropout(p=0, inplace=False)
      )
      (denselayer7): _DenseLayer(
        (norm1): BatchNorm2d(900, eps=1e-05, momentum=0.1, affine=True, track_running_stats=True)
        (relu1): ReLU(inplace=True)
        (conv1): Conv2d(900, 160, kernel_size=(1, 1), stride=(1, 1), bias=False)
        (norm2): BatchNorm2d(160, eps=1e-05, momentum=0.1, affine=True, track_running_stats=True)
        (relu2): ReLU(inplace=True)
        (conv2): Conv2d(160, 40, kernel_size=(3, 3), stride=(1, 1), padding=(1, 1), bias=False)
        (dropout): Dropout(p=0, inplace=False)
      )
      (denselayer8): _DenseLayer(
        (norm1): BatchNorm2d(940, eps=1e-05, momentum=0.1, affine=True, track_running_stats=True)
        (relu1): ReLU(inplace=True)
        (conv1): Conv2d(940, 160, kernel_size=(1, 1), stride=(1, 1), bias=False)
        (norm2): BatchNorm2d(160, eps=1e-05, momentum=0.1, affine=True, track_running_stats=True)
        (relu2): ReLU(inplace=True)
        (conv2): Conv2d(160, 40, kernel_size=(3, 3), stride=(1, 1), padding=(1, 1), bias=False)
        (dropout): Dropout(p=0, inplace=False)
      )
      (denselayer9): _DenseLayer(
        (norm1): BatchNorm2d(980, eps=1e-05, momentum=0.1, affine=True, track_running_stats=True)
        (relu1): ReLU(inplace=True)
        (conv1): Conv2d(980, 160, kernel_size=(1, 1), stride=(1, 1), bias=False)
        (norm2): BatchNorm2d(160, eps=1e-05, momentum=0.1, affine=True, track_running_stats=True)
        (relu2): ReLU(inplace=True)
        (conv2): Conv2d(160, 40, kernel_size=(3, 3), stride=(1, 1), padding=(1, 1), bias=False)
        (dropout): Dropout(p=0, inplace=False)
      )
      (denselayer10): _DenseLayer(
        (norm1): BatchNorm2d(1020, eps=1e-05, momentum=0.1, affine=True, track_running_stats=True)
        (relu1): ReLU(inplace=True)
        (conv1): Conv2d(1020, 160, kernel_size=(1, 1), stride=(1, 1), bias=False)
        (norm2): BatchNorm2d(160, eps=1e-05, momentum=0.1, affine=True, track_running_stats=True)
        (relu2): ReLU(inplace=True)
        (conv2): Conv2d(160, 40, kernel_size=(3, 3), stride=(1, 1), padding=(1, 1), bias=False)
        (dropout): Dropout(p=0, inplace=False)
      )
      (denselayer11): _DenseLayer(
        (norm1): BatchNorm2d(1060, eps=1e-05, momentum=0.1, affine=True, track_running_stats=True)
        (relu1): ReLU(inplace=True)
        (conv1): Conv2d(1060, 160, kernel_size=(1, 1), stride=(1, 1), bias=False)
        (norm2): BatchNorm2d(160, eps=1e-05, momentum=0.1, affine=True, track_running_stats=True)
        (relu2): ReLU(inplace=True)
        (conv2): Conv2d(160, 40, kernel_size=(3, 3), stride=(1, 1), padding=(1, 1), bias=False)
        (dropout): Dropout(p=0, inplace=False)
      )
      (denselayer12): _DenseLayer(
        (norm1): BatchNorm2d(1100, eps=1e-05, momentum=0.1, affine=True, track_running_stats=True)
        (relu1): ReLU(inplace=True)
        (conv1): Conv2d(1100, 160, kernel_size=(1, 1), stride=(1, 1), bias=False)
        (norm2): BatchNorm2d(160, eps=1e-05, momentum=0.1, affine=True, track_running_stats=True)
        (relu2): ReLU(inplace=True)
        (conv2): Conv2d(160, 40, kernel_size=(3, 3), stride=(1, 1), padding=(1, 1), bias=False)
        (dropout): Dropout(p=0, inplace=False)
      )
      (denselayer13): _DenseLayer(
        (norm1): BatchNorm2d(1140, eps=1e-05, momentum=0.1, affine=True, track_running_stats=True)
        (relu1): ReLU(inplace=True)
        (conv1): Conv2d(1140, 160, kernel_size=(1, 1), stride=(1, 1), bias=False)
        (norm2): BatchNorm2d(160, eps=1e-05, momentum=0.1, affine=True, track_running_stats=True)
        (relu2): ReLU(inplace=True)
        (conv2): Conv2d(160, 40, kernel_size=(3, 3), stride=(1, 1), padding=(1, 1), bias=False)
        (dropout): Dropout(p=0, inplace=False)
      )
      (denselayer14): _DenseLayer(
        (norm1): BatchNorm2d(1180, eps=1e-05, momentum=0.1, affine=True, track_running_stats=True)
        (relu1): ReLU(inplace=True)
        (conv1): Conv2d(1180, 160, kernel_size=(1, 1), stride=(1, 1), bias=False)
        (norm2): BatchNorm2d(160, eps=1e-05, momentum=0.1, affine=True, track_running_stats=True)
        (relu2): ReLU(inplace=True)
        (conv2): Conv2d(160, 40, kernel_size=(3, 3), stride=(1, 1), padding=(1, 1), bias=False)
        (dropout): Dropout(p=0, inplace=False)
      )
      (denselayer15): _DenseLayer(
        (norm1): BatchNorm2d(1220, eps=1e-05, momentum=0.1, affine=True, track_running_stats=True)
        (relu1): ReLU(inplace=True)
        (conv1): Conv2d(1220, 160, kernel_size=(1, 1), stride=(1, 1), bias=False)
        (norm2): BatchNorm2d(160, eps=1e-05, momentum=0.1, affine=True, track_running_stats=True)
        (relu2): ReLU(inplace=True)
        (conv2): Conv2d(160, 40, kernel_size=(3, 3), stride=(1, 1), padding=(1, 1), bias=False)
        (dropout): Dropout(p=0, inplace=False)
      )
      (denselayer16): _DenseLayer(
        (norm1): BatchNorm2d(1260, eps=1e-05, momentum=0.1, affine=True, track_running_stats=True)
        (relu1): ReLU(inplace=True)
        (conv1): Conv2d(1260, 160, kernel_size=(1, 1), stride=(1, 1), bias=False)
        (norm2): BatchNorm2d(160, eps=1e-05, momentum=0.1, affine=True, track_running_stats=True)
        (relu2): ReLU(inplace=True)
        (conv2): Conv2d(160, 40, kernel_size=(3, 3), stride=(1, 1), padding=(1, 1), bias=False)
        (dropout): Dropout(p=0, inplace=False)
      )
      (denselayer17): _DenseLayer(
        (norm1): BatchNorm2d(1300, eps=1e-05, momentum=0.1, affine=True, track_running_stats=True)
        (relu1): ReLU(inplace=True)
        (conv1): Conv2d(1300, 160, kernel_size=(1, 1), stride=(1, 1), bias=False)
        (norm2): BatchNorm2d(160, eps=1e-05, momentum=0.1, affine=True, track_running_stats=True)
        (relu2): ReLU(inplace=True)
        (conv2): Conv2d(160, 40, kernel_size=(3, 3), stride=(1, 1), padding=(1, 1), bias=False)
        (dropout): Dropout(p=0, inplace=False)
      )
      (denselayer18): _DenseLayer(
        (norm1): BatchNorm2d(1340, eps=1e-05, momentum=0.1, affine=True, track_running_stats=True)
        (relu1): ReLU(inplace=True)
        (conv1): Conv2d(1340, 160, kernel_size=(1, 1), stride=(1, 1), bias=False)
        (norm2): BatchNorm2d(160, eps=1e-05, momentum=0.1, affine=True, track_running_stats=True)
        (relu2): ReLU(inplace=True)
        (conv2): Conv2d(160, 40, kernel_size=(3, 3), stride=(1, 1), padding=(1, 1), bias=False)
        (dropout): Dropout(p=0, inplace=False)
      )
      (denselayer19): _DenseLayer(
        (norm1): BatchNorm2d(1380, eps=1e-05, momentum=0.1, affine=True, track_running_stats=True)
        (relu1): ReLU(inplace=True)
        (conv1): Conv2d(1380, 160, kernel_size=(1, 1), stride=(1, 1), bias=False)
        (norm2): BatchNorm2d(160, eps=1e-05, momentum=0.1, affine=True, track_running_stats=True)
        (relu2): ReLU(inplace=True)
        (conv2): Conv2d(160, 40, kernel_size=(3, 3), stride=(1, 1), padding=(1, 1), bias=False)
        (dropout): Dropout(p=0, inplace=False)
      )
      (denselayer20): _DenseLayer(
        (norm1): BatchNorm2d(1420, eps=1e-05, momentum=0.1, affine=True, track_running_stats=True)
        (relu1): ReLU(inplace=True)
        (conv1): Conv2d(1420, 160, kernel_size=(1, 1), stride=(1, 1), bias=False)
        (norm2): BatchNorm2d(160, eps=1e-05, momentum=0.1, affine=True, track_running_stats=True)
        (relu2): ReLU(inplace=True)
        (conv2): Conv2d(160, 40, kernel_size=(3, 3), stride=(1, 1), padding=(1, 1), bias=False)
        (dropout): Dropout(p=0, inplace=False)
      )
      (denselayer21): _DenseLayer(
        (norm1): BatchNorm2d(1460, eps=1e-05, momentum=0.1, affine=True, track_running_stats=True)
        (relu1): ReLU(inplace=True)
        (conv1): Conv2d(1460, 160, kernel_size=(1, 1), stride=(1, 1), bias=False)
        (norm2): BatchNorm2d(160, eps=1e-05, momentum=0.1, affine=True, track_running_stats=True)
        (relu2): ReLU(inplace=True)
        (conv2): Conv2d(160, 40, kernel_size=(3, 3), stride=(1, 1), padding=(1, 1), bias=False)
        (dropout): Dropout(p=0, inplace=False)
      )
      (denselayer22): _DenseLayer(
        (norm1): BatchNorm2d(1500, eps=1e-05, momentum=0.1, affine=True, track_running_stats=True)
        (relu1): ReLU(inplace=True)
        (conv1): Conv2d(1500, 160, kernel_size=(1, 1), stride=(1, 1), bias=False)
        (norm2): BatchNorm2d(160, eps=1e-05, momentum=0.1, affine=True, track_running_stats=True)
        (relu2): ReLU(inplace=True)
        (conv2): Conv2d(160, 40, kernel_size=(3, 3), stride=(1, 1), padding=(1, 1), bias=False)
        (dropout): Dropout(p=0, inplace=False)
      )
      (denselayer23): _DenseLayer(
        (norm1): BatchNorm2d(1540, eps=1e-05, momentum=0.1, affine=True, track_running_stats=True)
        (relu1): ReLU(inplace=True)
        (conv1): Conv2d(1540, 160, kernel_size=(1, 1), stride=(1, 1), bias=False)
        (norm2): BatchNorm2d(160, eps=1e-05, momentum=0.1, affine=True, track_running_stats=True)
        (relu2): ReLU(inplace=True)
        (conv2): Conv2d(160, 40, kernel_size=(3, 3), stride=(1, 1), padding=(1, 1), bias=False)
        (dropout): Dropout(p=0, inplace=False)
      )
      (denselayer24): _DenseLayer(
        (norm1): BatchNorm2d(1580, eps=1e-05, momentum=0.1, affine=True, track_running_stats=True)
        (relu1): ReLU(inplace=True)
        (conv1): Conv2d(1580, 160, kernel_size=(1, 1), stride=(1, 1), bias=False)
        (norm2): BatchNorm2d(160, eps=1e-05, momentum=0.1, affine=True, track_running_stats=True)
        (relu2): ReLU(inplace=True)
        (conv2): Conv2d(160, 40, kernel_size=(3, 3), stride=(1, 1), padding=(1, 1), bias=False)
        (dropout): Dropout(p=0, inplace=False)
      )
      (denselayer25): _DenseLayer(
        (norm1): BatchNorm2d(1620, eps=1e-05, momentum=0.1, affine=True, track_running_stats=True)
        (relu1): ReLU(inplace=True)
        (conv1): Conv2d(1620, 160, kernel_size=(1, 1), stride=(1, 1), bias=False)
        (norm2): BatchNorm2d(160, eps=1e-05, momentum=0.1, affine=True, track_running_stats=True)
        (relu2): ReLU(inplace=True)
        (conv2): Conv2d(160, 40, kernel_size=(3, 3), stride=(1, 1), padding=(1, 1), bias=False)
        (dropout): Dropout(p=0, inplace=False)
      )
      (denselayer26): _DenseLayer(
        (norm1): BatchNorm2d(1660, eps=1e-05, momentum=0.1, affine=True, track_running_stats=True)
        (relu1): ReLU(inplace=True)
        (conv1): Conv2d(1660, 160, kernel_size=(1, 1), stride=(1, 1), bias=False)
        (norm2): BatchNorm2d(160, eps=1e-05, momentum=0.1, affine=True, track_running_stats=True)
        (relu2): ReLU(inplace=True)
        (conv2): Conv2d(160, 40, kernel_size=(3, 3), stride=(1, 1), padding=(1, 1), bias=False)
        (dropout): Dropout(p=0, inplace=False)
      )
      (denselayer27): _DenseLayer(
        (norm1): BatchNorm2d(1700, eps=1e-05, momentum=0.1, affine=True, track_running_stats=True)
        (relu1): ReLU(inplace=True)
        (conv1): Conv2d(1700, 160, kernel_size=(1, 1), stride=(1, 1), bias=False)
        (norm2): BatchNorm2d(160, eps=1e-05, momentum=0.1, affine=True, track_running_stats=True)
        (relu2): ReLU(inplace=True)
        (conv2): Conv2d(160, 40, kernel_size=(3, 3), stride=(1, 1), padding=(1, 1), bias=False)
        (dropout): Dropout(p=0, inplace=False)
      )
      (denselayer28): _DenseLayer(
        (norm1): BatchNorm2d(1740, eps=1e-05, momentum=0.1, affine=True, track_running_stats=True)
        (relu1): ReLU(inplace=True)
        (conv1): Conv2d(1740, 160, kernel_size=(1, 1), stride=(1, 1), bias=False)
        (norm2): BatchNorm2d(160, eps=1e-05, momentum=0.1, affine=True, track_running_stats=True)
        (relu2): ReLU(inplace=True)
        (conv2): Conv2d(160, 40, kernel_size=(3, 3), stride=(1, 1), padding=(1, 1), bias=False)
        (dropout): Dropout(p=0, inplace=False)
      )
      (denselayer29): _DenseLayer(
        (norm1): BatchNorm2d(1780, eps=1e-05, momentum=0.1, affine=True, track_running_stats=True)
        (relu1): ReLU(inplace=True)
        (conv1): Conv2d(1780, 160, kernel_size=(1, 1), stride=(1, 1), bias=False)
        (norm2): BatchNorm2d(160, eps=1e-05, momentum=0.1, affine=True, track_running_stats=True)
        (relu2): ReLU(inplace=True)
        (conv2): Conv2d(160, 40, kernel_size=(3, 3), stride=(1, 1), padding=(1, 1), bias=False)
        (dropout): Dropout(p=0, inplace=False)
      )
      (denselayer30): _DenseLayer(
        (norm1): BatchNorm2d(1820, eps=1e-05, momentum=0.1, affine=True, track_running_stats=True)
        (relu1): ReLU(inplace=True)
        (conv1): Conv2d(1820, 160, kernel_size=(1, 1), stride=(1, 1), bias=False)
        (norm2): BatchNorm2d(160, eps=1e-05, momentum=0.1, affine=True, track_running_stats=True)
        (relu2): ReLU(inplace=True)
        (conv2): Conv2d(160, 40, kernel_size=(3, 3), stride=(1, 1), padding=(1, 1), bias=False)
        (dropout): Dropout(p=0, inplace=False)
      )
      (denselayer31): _DenseLayer(
        (norm1): BatchNorm2d(1860, eps=1e-05, momentum=0.1, affine=True, track_running_stats=True)
        (relu1): ReLU(inplace=True)
        (conv1): Conv2d(1860, 160, kernel_size=(1, 1), stride=(1, 1), bias=False)
        (norm2): BatchNorm2d(160, eps=1e-05, momentum=0.1, affine=True, track_running_stats=True)
        (relu2): ReLU(inplace=True)
        (conv2): Conv2d(160, 40, kernel_size=(3, 3), stride=(1, 1), padding=(1, 1), bias=False)
        (dropout): Dropout(p=0, inplace=False)
      )
    )
    (transition2): _Transition(
      (norm): BatchNorm2d(1900, eps=1e-05, momentum=0.1, affine=True, track_running_stats=True)
      (relu): ReLU(inplace=True)
      (conv): Conv2d(1900, 950, kernel_size=(1, 1), stride=(1, 1), bias=False)
      (pool): AvgPool2d(kernel_size=2, stride=2, padding=0)
    )
    (denseblock3): _DenseBlock(
      (denselayer1): _DenseLayer(
        (norm1): BatchNorm2d(950, eps=1e-05, momentum=0.1, affine=True, track_running_stats=True)
        (relu1): ReLU(inplace=True)
        (conv1): Conv2d(950, 160, kernel_size=(1, 1), stride=(1, 1), bias=False)
        (norm2): BatchNorm2d(160, eps=1e-05, momentum=0.1, affine=True, track_running_stats=True)
        (relu2): ReLU(inplace=True)
        (conv2): Conv2d(160, 40, kernel_size=(3, 3), stride=(1, 1), padding=(1, 1), bias=False)
        (dropout): Dropout(p=0, inplace=False)
      )
      (denselayer2): _DenseLayer(
        (norm1): BatchNorm2d(990, eps=1e-05, momentum=0.1, affine=True, track_running_stats=True)
        (relu1): ReLU(inplace=True)
        (conv1): Conv2d(990, 160, kernel_size=(1, 1), stride=(1, 1), bias=False)
        (norm2): BatchNorm2d(160, eps=1e-05, momentum=0.1, affine=True, track_running_stats=True)
        (relu2): ReLU(inplace=True)
        (conv2): Conv2d(160, 40, kernel_size=(3, 3), stride=(1, 1), padding=(1, 1), bias=False)
        (dropout): Dropout(p=0, inplace=False)
      )
      (denselayer3): _DenseLayer(
        (norm1): BatchNorm2d(1030, eps=1e-05, momentum=0.1, affine=True, track_running_stats=True)
        (relu1): ReLU(inplace=True)
        (conv1): Conv2d(1030, 160, kernel_size=(1, 1), stride=(1, 1), bias=False)
        (norm2): BatchNorm2d(160, eps=1e-05, momentum=0.1, affine=True, track_running_stats=True)
        (relu2): ReLU(inplace=True)
        (conv2): Conv2d(160, 40, kernel_size=(3, 3), stride=(1, 1), padding=(1, 1), bias=False)
        (dropout): Dropout(p=0, inplace=False)
      )
      (denselayer4): _DenseLayer(
        (norm1): BatchNorm2d(1070, eps=1e-05, momentum=0.1, affine=True, track_running_stats=True)
        (relu1): ReLU(inplace=True)
        (conv1): Conv2d(1070, 160, kernel_size=(1, 1), stride=(1, 1), bias=False)
        (norm2): BatchNorm2d(160, eps=1e-05, momentum=0.1, affine=True, track_running_stats=True)
        (relu2): ReLU(inplace=True)
        (conv2): Conv2d(160, 40, kernel_size=(3, 3), stride=(1, 1), padding=(1, 1), bias=False)
        (dropout): Dropout(p=0, inplace=False)
      )
      (denselayer5): _DenseLayer(
        (norm1): BatchNorm2d(1110, eps=1e-05, momentum=0.1, affine=True, track_running_stats=True)
        (relu1): ReLU(inplace=True)
        (conv1): Conv2d(1110, 160, kernel_size=(1, 1), stride=(1, 1), bias=False)
        (norm2): BatchNorm2d(160, eps=1e-05, momentum=0.1, affine=True, track_running_stats=True)
        (relu2): ReLU(inplace=True)
        (conv2): Conv2d(160, 40, kernel_size=(3, 3), stride=(1, 1), padding=(1, 1), bias=False)
        (dropout): Dropout(p=0, inplace=False)
      )
      (denselayer6): _DenseLayer(
        (norm1): BatchNorm2d(1150, eps=1e-05, momentum=0.1, affine=True, track_running_stats=True)
        (relu1): ReLU(inplace=True)
        (conv1): Conv2d(1150, 160, kernel_size=(1, 1), stride=(1, 1), bias=False)
        (norm2): BatchNorm2d(160, eps=1e-05, momentum=0.1, affine=True, track_running_stats=True)
        (relu2): ReLU(inplace=True)
        (conv2): Conv2d(160, 40, kernel_size=(3, 3), stride=(1, 1), padding=(1, 1), bias=False)
        (dropout): Dropout(p=0, inplace=False)
      )
      (denselayer7): _DenseLayer(
        (norm1): BatchNorm2d(1190, eps=1e-05, momentum=0.1, affine=True, track_running_stats=True)
        (relu1): ReLU(inplace=True)
        (conv1): Conv2d(1190, 160, kernel_size=(1, 1), stride=(1, 1), bias=False)
        (norm2): BatchNorm2d(160, eps=1e-05, momentum=0.1, affine=True, track_running_stats=True)
        (relu2): ReLU(inplace=True)
        (conv2): Conv2d(160, 40, kernel_size=(3, 3), stride=(1, 1), padding=(1, 1), bias=False)
        (dropout): Dropout(p=0, inplace=False)
      )
      (denselayer8): _DenseLayer(
        (norm1): BatchNorm2d(1230, eps=1e-05, momentum=0.1, affine=True, track_running_stats=True)
        (relu1): ReLU(inplace=True)
        (conv1): Conv2d(1230, 160, kernel_size=(1, 1), stride=(1, 1), bias=False)
        (norm2): BatchNorm2d(160, eps=1e-05, momentum=0.1, affine=True, track_running_stats=True)
        (relu2): ReLU(inplace=True)
        (conv2): Conv2d(160, 40, kernel_size=(3, 3), stride=(1, 1), padding=(1, 1), bias=False)
        (dropout): Dropout(p=0, inplace=False)
      )
      (denselayer9): _DenseLayer(
        (norm1): BatchNorm2d(1270, eps=1e-05, momentum=0.1, affine=True, track_running_stats=True)
        (relu1): ReLU(inplace=True)
        (conv1): Conv2d(1270, 160, kernel_size=(1, 1), stride=(1, 1), bias=False)
        (norm2): BatchNorm2d(160, eps=1e-05, momentum=0.1, affine=True, track_running_stats=True)
        (relu2): ReLU(inplace=True)
        (conv2): Conv2d(160, 40, kernel_size=(3, 3), stride=(1, 1), padding=(1, 1), bias=False)
        (dropout): Dropout(p=0, inplace=False)
      )
      (denselayer10): _DenseLayer(
        (norm1): BatchNorm2d(1310, eps=1e-05, momentum=0.1, affine=True, track_running_stats=True)
        (relu1): ReLU(inplace=True)
        (conv1): Conv2d(1310, 160, kernel_size=(1, 1), stride=(1, 1), bias=False)
        (norm2): BatchNorm2d(160, eps=1e-05, momentum=0.1, affine=True, track_running_stats=True)
        (relu2): ReLU(inplace=True)
        (conv2): Conv2d(160, 40, kernel_size=(3, 3), stride=(1, 1), padding=(1, 1), bias=False)
        (dropout): Dropout(p=0, inplace=False)
      )
      (denselayer11): _DenseLayer(
        (norm1): BatchNorm2d(1350, eps=1e-05, momentum=0.1, affine=True, track_running_stats=True)
        (relu1): ReLU(inplace=True)
        (conv1): Conv2d(1350, 160, kernel_size=(1, 1), stride=(1, 1), bias=False)
        (norm2): BatchNorm2d(160, eps=1e-05, momentum=0.1, affine=True, track_running_stats=True)
        (relu2): ReLU(inplace=True)
        (conv2): Conv2d(160, 40, kernel_size=(3, 3), stride=(1, 1), padding=(1, 1), bias=False)
        (dropout): Dropout(p=0, inplace=False)
      )
      (denselayer12): _DenseLayer(
        (norm1): BatchNorm2d(1390, eps=1e-05, momentum=0.1, affine=True, track_running_stats=True)
        (relu1): ReLU(inplace=True)
        (conv1): Conv2d(1390, 160, kernel_size=(1, 1), stride=(1, 1), bias=False)
        (norm2): BatchNorm2d(160, eps=1e-05, momentum=0.1, affine=True, track_running_stats=True)
        (relu2): ReLU(inplace=True)
        (conv2): Conv2d(160, 40, kernel_size=(3, 3), stride=(1, 1), padding=(1, 1), bias=False)
        (dropout): Dropout(p=0, inplace=False)
      )
      (denselayer13): _DenseLayer(
        (norm1): BatchNorm2d(1430, eps=1e-05, momentum=0.1, affine=True, track_running_stats=True)
        (relu1): ReLU(inplace=True)
        (conv1): Conv2d(1430, 160, kernel_size=(1, 1), stride=(1, 1), bias=False)
        (norm2): BatchNorm2d(160, eps=1e-05, momentum=0.1, affine=True, track_running_stats=True)
        (relu2): ReLU(inplace=True)
        (conv2): Conv2d(160, 40, kernel_size=(3, 3), stride=(1, 1), padding=(1, 1), bias=False)
        (dropout): Dropout(p=0, inplace=False)
      )
      (denselayer14): _DenseLayer(
        (norm1): BatchNorm2d(1470, eps=1e-05, momentum=0.1, affine=True, track_running_stats=True)
        (relu1): ReLU(inplace=True)
        (conv1): Conv2d(1470, 160, kernel_size=(1, 1), stride=(1, 1), bias=False)
        (norm2): BatchNorm2d(160, eps=1e-05, momentum=0.1, affine=True, track_running_stats=True)
        (relu2): ReLU(inplace=True)
        (conv2): Conv2d(160, 40, kernel_size=(3, 3), stride=(1, 1), padding=(1, 1), bias=False)
        (dropout): Dropout(p=0, inplace=False)
      )
      (denselayer15): _DenseLayer(
        (norm1): BatchNorm2d(1510, eps=1e-05, momentum=0.1, affine=True, track_running_stats=True)
        (relu1): ReLU(inplace=True)
        (conv1): Conv2d(1510, 160, kernel_size=(1, 1), stride=(1, 1), bias=False)
        (norm2): BatchNorm2d(160, eps=1e-05, momentum=0.1, affine=True, track_running_stats=True)
        (relu2): ReLU(inplace=True)
        (conv2): Conv2d(160, 40, kernel_size=(3, 3), stride=(1, 1), padding=(1, 1), bias=False)
        (dropout): Dropout(p=0, inplace=False)
      )
      (denselayer16): _DenseLayer(
        (norm1): BatchNorm2d(1550, eps=1e-05, momentum=0.1, affine=True, track_running_stats=True)
        (relu1): ReLU(inplace=True)
        (conv1): Conv2d(1550, 160, kernel_size=(1, 1), stride=(1, 1), bias=False)
        (norm2): BatchNorm2d(160, eps=1e-05, momentum=0.1, affine=True, track_running_stats=True)
        (relu2): ReLU(inplace=True)
        (conv2): Conv2d(160, 40, kernel_size=(3, 3), stride=(1, 1), padding=(1, 1), bias=False)
        (dropout): Dropout(p=0, inplace=False)
      )
      (denselayer17): _DenseLayer(
        (norm1): BatchNorm2d(1590, eps=1e-05, momentum=0.1, affine=True, track_running_stats=True)
        (relu1): ReLU(inplace=True)
        (conv1): Conv2d(1590, 160, kernel_size=(1, 1), stride=(1, 1), bias=False)
        (norm2): BatchNorm2d(160, eps=1e-05, momentum=0.1, affine=True, track_running_stats=True)
        (relu2): ReLU(inplace=True)
        (conv2): Conv2d(160, 40, kernel_size=(3, 3), stride=(1, 1), padding=(1, 1), bias=False)
        (dropout): Dropout(p=0, inplace=False)
      )
      (denselayer18): _DenseLayer(
        (norm1): BatchNorm2d(1630, eps=1e-05, momentum=0.1, affine=True, track_running_stats=True)
        (relu1): ReLU(inplace=True)
        (conv1): Conv2d(1630, 160, kernel_size=(1, 1), stride=(1, 1), bias=False)
        (norm2): BatchNorm2d(160, eps=1e-05, momentum=0.1, affine=True, track_running_stats=True)
        (relu2): ReLU(inplace=True)
        (conv2): Conv2d(160, 40, kernel_size=(3, 3), stride=(1, 1), padding=(1, 1), bias=False)
        (dropout): Dropout(p=0, inplace=False)
      )
      (denselayer19): _DenseLayer(
        (norm1): BatchNorm2d(1670, eps=1e-05, momentum=0.1, affine=True, track_running_stats=True)
        (relu1): ReLU(inplace=True)
        (conv1): Conv2d(1670, 160, kernel_size=(1, 1), stride=(1, 1), bias=False)
        (norm2): BatchNorm2d(160, eps=1e-05, momentum=0.1, affine=True, track_running_stats=True)
        (relu2): ReLU(inplace=True)
        (conv2): Conv2d(160, 40, kernel_size=(3, 3), stride=(1, 1), padding=(1, 1), bias=False)
        (dropout): Dropout(p=0, inplace=False)
      )
      (denselayer20): _DenseLayer(
        (norm1): BatchNorm2d(1710, eps=1e-05, momentum=0.1, affine=True, track_running_stats=True)
        (relu1): ReLU(inplace=True)
        (conv1): Conv2d(1710, 160, kernel_size=(1, 1), stride=(1, 1), bias=False)
        (norm2): BatchNorm2d(160, eps=1e-05, momentum=0.1, affine=True, track_running_stats=True)
        (relu2): ReLU(inplace=True)
        (conv2): Conv2d(160, 40, kernel_size=(3, 3), stride=(1, 1), padding=(1, 1), bias=False)
        (dropout): Dropout(p=0, inplace=False)
      )
      (denselayer21): _DenseLayer(
        (norm1): BatchNorm2d(1750, eps=1e-05, momentum=0.1, affine=True, track_running_stats=True)
        (relu1): ReLU(inplace=True)
        (conv1): Conv2d(1750, 160, kernel_size=(1, 1), stride=(1, 1), bias=False)
        (norm2): BatchNorm2d(160, eps=1e-05, momentum=0.1, affine=True, track_running_stats=True)
        (relu2): ReLU(inplace=True)
        (conv2): Conv2d(160, 40, kernel_size=(3, 3), stride=(1, 1), padding=(1, 1), bias=False)
        (dropout): Dropout(p=0, inplace=False)
      )
      (denselayer22): _DenseLayer(
        (norm1): BatchNorm2d(1790, eps=1e-05, momentum=0.1, affine=True, track_running_stats=True)
        (relu1): ReLU(inplace=True)
        (conv1): Conv2d(1790, 160, kernel_size=(1, 1), stride=(1, 1), bias=False)
        (norm2): BatchNorm2d(160, eps=1e-05, momentum=0.1, affine=True, track_running_stats=True)
        (relu2): ReLU(inplace=True)
        (conv2): Conv2d(160, 40, kernel_size=(3, 3), stride=(1, 1), padding=(1, 1), bias=False)
        (dropout): Dropout(p=0, inplace=False)
      )
      (denselayer23): _DenseLayer(
        (norm1): BatchNorm2d(1830, eps=1e-05, momentum=0.1, affine=True, track_running_stats=True)
        (relu1): ReLU(inplace=True)
        (conv1): Conv2d(1830, 160, kernel_size=(1, 1), stride=(1, 1), bias=False)
        (norm2): BatchNorm2d(160, eps=1e-05, momentum=0.1, affine=True, track_running_stats=True)
        (relu2): ReLU(inplace=True)
        (conv2): Conv2d(160, 40, kernel_size=(3, 3), stride=(1, 1), padding=(1, 1), bias=False)
        (dropout): Dropout(p=0, inplace=False)
      )
      (denselayer24): _DenseLayer(
        (norm1): BatchNorm2d(1870, eps=1e-05, momentum=0.1, affine=True, track_running_stats=True)
        (relu1): ReLU(inplace=True)
        (conv1): Conv2d(1870, 160, kernel_size=(1, 1), stride=(1, 1), bias=False)
        (norm2): BatchNorm2d(160, eps=1e-05, momentum=0.1, affine=True, track_running_stats=True)
        (relu2): ReLU(inplace=True)
        (conv2): Conv2d(160, 40, kernel_size=(3, 3), stride=(1, 1), padding=(1, 1), bias=False)
        (dropout): Dropout(p=0, inplace=False)
      )
      (denselayer25): _DenseLayer(
        (norm1): BatchNorm2d(1910, eps=1e-05, momentum=0.1, affine=True, track_running_stats=True)
        (relu1): ReLU(inplace=True)
        (conv1): Conv2d(1910, 160, kernel_size=(1, 1), stride=(1, 1), bias=False)
        (norm2): BatchNorm2d(160, eps=1e-05, momentum=0.1, affine=True, track_running_stats=True)
        (relu2): ReLU(inplace=True)
        (conv2): Conv2d(160, 40, kernel_size=(3, 3), stride=(1, 1), padding=(1, 1), bias=False)
        (dropout): Dropout(p=0, inplace=False)
      )
      (denselayer26): _DenseLayer(
        (norm1): BatchNorm2d(1950, eps=1e-05, momentum=0.1, affine=True, track_running_stats=True)
        (relu1): ReLU(inplace=True)
        (conv1): Conv2d(1950, 160, kernel_size=(1, 1), stride=(1, 1), bias=False)
        (norm2): BatchNorm2d(160, eps=1e-05, momentum=0.1, affine=True, track_running_stats=True)
        (relu2): ReLU(inplace=True)
        (conv2): Conv2d(160, 40, kernel_size=(3, 3), stride=(1, 1), padding=(1, 1), bias=False)
        (dropout): Dropout(p=0, inplace=False)
      )
      (denselayer27): _DenseLayer(
        (norm1): BatchNorm2d(1990, eps=1e-05, momentum=0.1, affine=True, track_running_stats=True)
        (relu1): ReLU(inplace=True)
        (conv1): Conv2d(1990, 160, kernel_size=(1, 1), stride=(1, 1), bias=False)
        (norm2): BatchNorm2d(160, eps=1e-05, momentum=0.1, affine=True, track_running_stats=True)
        (relu2): ReLU(inplace=True)
        (conv2): Conv2d(160, 40, kernel_size=(3, 3), stride=(1, 1), padding=(1, 1), bias=False)
        (dropout): Dropout(p=0, inplace=False)
      )
      (denselayer28): _DenseLayer(
        (norm1): BatchNorm2d(2030, eps=1e-05, momentum=0.1, affine=True, track_running_stats=True)
        (relu1): ReLU(inplace=True)
        (conv1): Conv2d(2030, 160, kernel_size=(1, 1), stride=(1, 1), bias=False)
        (norm2): BatchNorm2d(160, eps=1e-05, momentum=0.1, affine=True, track_running_stats=True)
        (relu2): ReLU(inplace=True)
        (conv2): Conv2d(160, 40, kernel_size=(3, 3), stride=(1, 1), padding=(1, 1), bias=False)
        (dropout): Dropout(p=0, inplace=False)
      )
      (denselayer29): _DenseLayer(
        (norm1): BatchNorm2d(2070, eps=1e-05, momentum=0.1, affine=True, track_running_stats=True)
        (relu1): ReLU(inplace=True)
        (conv1): Conv2d(2070, 160, kernel_size=(1, 1), stride=(1, 1), bias=False)
        (norm2): BatchNorm2d(160, eps=1e-05, momentum=0.1, affine=True, track_running_stats=True)
        (relu2): ReLU(inplace=True)
        (conv2): Conv2d(160, 40, kernel_size=(3, 3), stride=(1, 1), padding=(1, 1), bias=False)
        (dropout): Dropout(p=0, inplace=False)
      )
      (denselayer30): _DenseLayer(
        (norm1): BatchNorm2d(2110, eps=1e-05, momentum=0.1, affine=True, track_running_stats=True)
        (relu1): ReLU(inplace=True)
        (conv1): Conv2d(2110, 160, kernel_size=(1, 1), stride=(1, 1), bias=False)
        (norm2): BatchNorm2d(160, eps=1e-05, momentum=0.1, affine=True, track_running_stats=True)
        (relu2): ReLU(inplace=True)
        (conv2): Conv2d(160, 40, kernel_size=(3, 3), stride=(1, 1), padding=(1, 1), bias=False)
        (dropout): Dropout(p=0, inplace=False)
      )
      (denselayer31): _DenseLayer(
        (norm1): BatchNorm2d(2150, eps=1e-05, momentum=0.1, affine=True, track_running_stats=True)
        (relu1): ReLU(inplace=True)
        (conv1): Conv2d(2150, 160, kernel_size=(1, 1), stride=(1, 1), bias=False)
        (norm2): BatchNorm2d(160, eps=1e-05, momentum=0.1, affine=True, track_running_stats=True)
        (relu2): ReLU(inplace=True)
        (conv2): Conv2d(160, 40, kernel_size=(3, 3), stride=(1, 1), padding=(1, 1), bias=False)
        (dropout): Dropout(p=0, inplace=False)
      )
    )
    (norm5): BatchNorm2d(2190, eps=1e-05, momentum=0.1, affine=True, track_running_stats=True)
  )
  (classifier): Linear(in_features=2190, out_features=100, bias=True)
)